Model Architecture:
CNN_dynamic(
  (conv_layers): ModuleList(
    (0): Conv2d(3, 32, kernel_size=(3, 3), stride=(1, 1), padding=same)
    (1): ReLU()
    (2): Conv2d(32, 32, kernel_size=(3, 3), stride=(1, 1), padding=same)
    (3): ReLU()
    (4): MaxPool2d(kernel_size=2, stride=2, padding=0, dilation=1, ceil_mode=False)
    (5): Conv2d(32, 64, kernel_size=(3, 3), stride=(1, 1), padding=same)
    (6): ReLU()
    (7): Conv2d(64, 64, kernel_size=(3, 3), stride=(1, 1), padding=same)
    (8): ReLU()
    (9): MaxPool2d(kernel_size=2, stride=2, padding=0, dilation=1, ceil_mode=False)
    (10): Conv2d(64, 128, kernel_size=(3, 3), stride=(1, 1), padding=same)
    (11): ReLU()
    (12): Conv2d(128, 128, kernel_size=(3, 3), stride=(1, 1), padding=same)
    (13): ReLU()
    (14): MaxPool2d(kernel_size=2, stride=2, padding=0, dilation=1, ceil_mode=False)
    (15): Conv2d(128, 128, kernel_size=(3, 3), stride=(1, 1), padding=same)
    (16): ReLU()
    (17): Conv2d(128, 128, kernel_size=(3, 3), stride=(1, 1), padding=same)
    (18): ReLU()
    (19): MaxPool2d(kernel_size=2, stride=2, padding=0, dilation=1, ceil_mode=False)
  )
  (flatten): Flatten(start_dim=1, end_dim=-1)
  (linear_layers): ModuleList(
    (0): Linear(in_features=62208, out_features=4096, bias=True)
    (1): ReLU()
    (2): Linear(in_features=4096, out_features=1024, bias=True)
    (3): ReLU()
    (4): Linear(in_features=1024, out_features=128, bias=True)
    (5): ReLU()
    (6): Linear(in_features=128, out_features=10, bias=True)
    (7): Softmax(dim=1)
  )
)

--- Hyperparameters ---
Epochs: 10
Learning Rate: 0.001
Optimizer: Adam
Batch Size: 32
Device: cpu
Subset size: 20

--- Runtime ---
Total training time: 698.20 seconds

--- Parameters ---
Total parameters: 259718058
Trainable parameters: 259718058
